…
    less_keys=('abs_rel', 'rmse'))
work_dir = './work_dirs/depthformer_swint_w7_nyu_bilinear'
gpu_ids = range(0, 1)

/newHome/S6_XJ/Monocular-Depth-Estimation-Toolbox/depth/models/backbones/depthformer_swin.py:684: UserWarning: DeprecationWarning: pretrained is a deprecated, please use "init_cfg" instead
  warnings.warn('DeprecationWarning: pretrained is a deprecated, '
in_channel, up_channel: 768 768
2025-05-21 16:33:23,500 - depth - INFO - Use load_from_http loader
2025-05-21 16:33:28,275 - depth - INFO - DepthEncoderDecoder(
  (backbone): DepthFormerSwin(
    (patch_embed): PatchEmbedSwin(
      (projection): Conv2d(3, 96, kernel_size=(4, 4), stride=(4, 4))
      (norm): LayerNorm((96,), eps=1e-05, elementwise_affine=True)
    )
    (drop_after_pos): Dropout(p=0.0, inplace=False)
    (stages): ModuleList(
      (0): SwinBlockSequence(
        (blocks): ModuleList(
          (0): SwinBlock(
            (norm1): LayerNorm((96,), eps=1e-05, elementwise_affine=True)
            (attn): ShiftWindowMSA(
              (w_msa): WindowMSA(
                (qkv): Linear(in_features=96, out_features=288, bias=True)
                (attn_drop): Dropout(p=0.0, inplace=False)
                (proj): Linear(in_features=96, out_features=96, bias=True)
                (proj_drop): Dropout(p=0.0, inplace=False)
                (softmax): Softmax(dim=-1)
              )
              (drop): DropPath()
            )
            (norm2): LayerNorm((96,), eps=1e-05, elementwise_affine=True)
            (ffn): FFN(
              (activate): GELU()
              (layers): Sequential(
                (0): Sequential(
                  (0): Linear(in_features=96, out_features=384, bias=True)
                  (1): GELU()
                  (2): Dropout(p=0.0, inplace=False)
                )
                (1): Linear(in_features=384, out_features=96, bias=True)
                (2): Dropout(p=0.0, inplace=False)
              )
              (dropout_layer): DropPath()
            )
          )
          (1): SwinBlock(
            (norm1): LayerNorm((96,), eps=1e-05, elementwise_affine=True)
            (attn): ShiftWindowMSA(
              (w_msa): WindowMSA(
                (qkv): Linear(in_features=96, out_features=288, bias=True)
                (attn_drop): Dropout(p=0.0, inplace=False)
                (proj): Linear(in_features=96, out_features=96, bias=True)
                (proj_drop): Dropout(p=0.0, inplace=False)
                (softmax): Softmax(dim=-1)
              )
              (drop): DropPath()
            )
            (norm2): LayerNorm((96,), eps=1e-05, elementwise_affine=True)
            (ffn): FFN(
              (activate): GELU()
              (layers): Sequential(
                (0): Sequential(
                  (0): Linear(in_features=96, out_features=384, bias=True)
                  (1): GELU()
                  (2): Dropout(p=0.0, inplace=False)
                )
                (1): Linear(in_features=384, out_features=96, bias=True)
                (2): Dropout(p=0.0, inplace=False)
              )
              (dropout_layer): DropPath()
            )
          )
        )
        (downsample): PatchMerging(
          (sampler): Unfold(kernel_size=2, dilation=1, padding=0, stride=2)
          (norm): LayerNorm((384,), eps=1e-05, elementwise_affine=True)
          (reduction): Linear(in_features=384, out_features=192, bias=False)
        )
      )
      (1): SwinBlockSequence(
        (blocks): ModuleList(
          (0): SwinBlock(
            (norm1): LayerNorm((192,), eps=1e-05, elementwise_affine=True)
            (attn): ShiftWindowMSA(
              (w_msa): WindowMSA(
                (qkv): Linear(in_features=192, out_features=576, bias=True)
                (attn_drop): Dropout(p=0.0, inplace=False)
                (proj): Linear(in_features=192, out_features=192, bias=True)
                (proj_drop): Dropout(p=0.0, inplace=False)
                (softmax): Softmax(dim=-1)
              )
              (drop): DropPath()
            )
            (norm2): LayerNorm((192,), eps=1e-05, elementwise_affine=True)
            (ffn): FFN(
              (activate): GELU()
              (layers): Sequential(
                (0): Sequential(
                  (0): Linear(in_features=192, out_features=768, bias=True)
                  (1): GELU()
                  (2): Dropout(p=0.0, inplace=False)
                )
                (1): Linear(in_features=768, out_features=192, bias=True)
                (2): Dropout(p=0.0, inplace=False)
              )
              (dropout_layer): DropPath()
            )
          )
          (1): SwinBlock(
            (norm1): LayerNorm((192,), eps=1e-05, elementwise_affine=True)
            (attn): ShiftWindowMSA(
              (w_msa): WindowMSA(
                (qkv): Linear(in_features=192, out_features=576, bias=True)
                (attn_drop): Dropout(p=0.0, inplace=False)
                (proj): Linear(in_features=192, out_features=192, bias=True)
                (proj_drop): Dropout(p=0.0, inplace=False)
                (softmax): Softmax(dim=-1)
              )
              (drop): DropPath()
            )
            (norm2): LayerNorm((192,), eps=1e-05, elementwise_affine=True)
            (ffn): FFN(
              (activate): GELU()
              (layers): Sequential(
                (0): Sequential(
                  (0): Linear(in_features=192, out_features=768, bias=True)
                  (1): GELU()
                  (2): Dropout(p=0.0, inplace=False)
                )
                (1): Linear(in_features=768, out_features=192, bias=True)
                (2): Dropout(p=0.0, inplace=False)
              )
              (dropout_layer): DropPath()
            )
          )
        )
        (downsample): PatchMerging(
          (sampler): Unfold(kernel_size=2, dilation=1, padding=0, stride=2)
          (norm): LayerNorm((768,), eps=1e-05, elementwise_affine=True)
          (reduction): Linear(in_features=768, out_features=384, bias=False)
        )
      )
      (2): SwinBlockSequence(
        (blocks): ModuleList(
          (0): SwinBlock(
            (norm1): LayerNorm((384,), eps=1e-05, elementwise_affine=True)
            (attn): ShiftWindowMSA(
              (w_msa): WindowMSA(
                (qkv): Linear(in_features=384, out_features=1152, bias=True)
                (attn_drop): Dropout(p=0.0, inplace=False)
                (proj): Linear(in_features=384, out_features=384, bias=True)
                (proj_drop): Dropout(p=0.0, inplace=False)
                (softmax): Softmax(dim=-1)
              )
              (drop): DropPath()
            )
            (norm2): LayerNorm((384,), eps=1e-05, elementwise_affine=True)
            (ffn): FFN(
              (activate): GELU()
              (layers): Sequential(
                (0): Sequential(
                  (0): Linear(in_features=384, out_features=1536, bias=True)
                  (1): GELU()
                  (2): Dropout(p=0.0, inplace=False)
                )
                (1): Linear(in_features=1536, out_features=384, bias=True)
                (2): Dropout(p=0.0, inplace=False)
              )
              (dropout_layer): DropPath()
            )
          )
          (1): SwinBlock(
            (norm1): LayerNorm((384,), eps=1e-05, elementwise_affine=True)
            (attn): ShiftWindowMSA(
              (w_msa): WindowMSA(
                (qkv): Linear(in_features=384, out_features=1152, bias=True)
                (attn_drop): Dropout(p=0.0, inplace=False)
                (proj): Linear(in_features=384, out_features=384, bias=True)
                (proj_drop): Dropout(p=0.0, inplace=False)
                (softmax): Softmax(dim=-1)
              )
              (drop): DropPath()
            )
            (norm2): LayerNorm((384,), eps=1e-05, elementwise_affine=True)
            (ffn): FFN(
              (activate): GELU()
              (layers): Sequential(
                (0): Sequential(
                  (0): Linear(in_features=384, out_features=1536, bias=True)
                  (1): GELU()
                  (2): Dropout(p=0.0, inplace=False)
                )
                (1): Linear(in_features=1536, out_features=384, bias=True)
                (2): Dropout(p=0.0, inplace=False)
              )
              (dropout_layer): DropPath()
            )
          )
          (2): SwinBlock(
            (norm1): LayerNorm((384,), eps=1e-05, elementwise_affine=True)
            (attn): ShiftWindowMSA(
              (w_msa): WindowMSA(
                (qkv): Linear(in_features=384, out_features=1152, bias=True)
                (attn_drop): Dropout(p=0.0, inplace=False)
                (proj): Linear(in_features=384, out_features=384, bias=True)
                (proj_drop): Dropout(p=0.0, inplace=False)
                (softmax): Softmax(dim=-1)
              )
              (drop): DropPath()
            )
            (norm2): LayerNorm((384,), eps=1e-05, elementwise_affine=True)
            (ffn): FFN(
              (activate): GELU()
              (layers): Sequential(
                (0): Sequential(
                  (0): Linear(in_features=384, out_features=1536, bias=True)
                  (1): GELU()
                  (2): Dropout(p=0.0, inplace=False)
                )
                (1): Linear(in_features=1536, out_features=384, bias=True)
                (2): Dropout(p=0.0, inplace=False)
              )
              (dropout_layer): DropPath()
            )
          )
          (3): SwinBlock(
            (norm1): LayerNorm((384,), eps=1e-05, elementwise_affine=True)
            (attn): ShiftWindowMSA(
              (w_msa): WindowMSA(
                (qkv): Linear(in_features=384, out_features=1152, bias=True)
                (attn_drop): Dropout(p=0.0, inplace=False)
                (proj): Linear(in_features=384, out_features=384, bias=True)
                (proj_drop): Dropout(p=0.0, inplace=False)
                (softmax): Softmax(dim=-1)
              )
              (drop): DropPath()
            )
            (norm2): LayerNorm((384,), eps=1e-05, elementwise_affine=True)
            (ffn): FFN(
              (activate): GELU()
              (layers): Sequential(
                (0): Sequential(
                  (0): Linear(in_features=384, out_features=1536, bias=True)
                  (1): GELU()
                  (2): Dropout(p=0.0, inplace=False)
                )
                (1): Linear(in_features=1536, out_features=384, bias=True)
                (2): Dropout(p=0.0, inplace=False)
              )
              (dropout_layer): DropPath()
            )
          )
          (4): SwinBlock(
            (norm1): LayerNorm((384,), eps=1e-05, elementwise_affine=True)
            (attn): ShiftWindowMSA(
              (w_msa): WindowMSA(
                (qkv): Linear(in_features=384, out_features=1152, bias=True)
                (attn_drop): Dropout(p=0.0, inplace=False)
                (proj): Linear(in_features=384, out_features=384, bias=True)
                (proj_drop): Dropout(p=0.0, inplace=False)
                (softmax): Softmax(dim=-1)
              )
              (drop): DropPath()
            )
            (norm2): LayerNorm((384,), eps=1e-05, elementwise_affine=True)
            (ffn): FFN(
              (activate): GELU()
              (layers): Sequential(
                (0): Sequential(
                  (0): Linear(in_features=384, out_features=1536, bias=True)
                  (1): GELU()
                  (2): Dropout(p=0.0, inplace=False)
                )
                (1): Linear(in_features=1536, out_features=384, bias=True)
                (2): Dropout(p=0.0, inplace=False)
              )
              (dropout_layer): DropPath()
            )
          )
          (5): SwinBlock(
            (norm1): LayerNorm((384,), eps=1e-05, elementwise_affine=True)
            (attn): ShiftWindowMSA(
              (w_msa): WindowMSA(
                (qkv): Linear(in_features=384, out_features=1152, bias=True)
                (attn_drop): Dropout(p=0.0, inplace=False)
                (proj): Linear(in_features=384, out_features=384, bias=True)
                (proj_drop): Dropout(p=0.0, inplace=False)
                (softmax): Softmax(dim=-1)
              )
              (drop): DropPath()
            )
            (norm2): LayerNorm((384,), eps=1e-05, elementwise_affine=True)
            (ffn): FFN(
              (activate): GELU()
              (layers): Sequential(
                (0): Sequential(
                  (0): Linear(in_features=384, out_features=1536, bias=True)
                  (1): GELU()
                  (2): Dropout(p=0.0, inplace=False)
                )
                (1): Linear(in_features=1536, out_features=384, bias=True)
                (2): Dropout(p=0.0, inplace=False)
              )
              (dropout_layer): DropPath()
            )
          )
        )
        (downsample): PatchMerging(
          (sampler): Unfold(kernel_size=2, dilation=1, padding=0, stride=2)
          (norm): LayerNorm((1536,), eps=1e-05, elementwise_affine=True)
          (reduction): Linear(in_features=1536, out_features=768, bias=False)
        )
      )
      (3): SwinBlockSequence(
        (blocks): ModuleList(
          (0): SwinBlock(
            (norm1): LayerNorm((768,), eps=1e-05, elementwise_affine=True)
            (attn): ShiftWindowMSA(
              (w_msa): WindowMSA(
                (qkv): Linear(in_features=768, out_features=2304, bias=True)
                (attn_drop): Dropout(p=0.0, inplace=False)
                (proj): Linear(in_features=768, out_features=768, bias=True)
                (proj_drop): Dropout(p=0.0, inplace=False)
                (softmax): Softmax(dim=-1)
              )
              (drop): DropPath()
            )
            (norm2): LayerNorm((768,), eps=1e-05, elementwise_affine=True)
            (ffn): FFN(
              (activate): GELU()
              (layers): Sequential(
                (0): Sequential(
                  (0): Linear(in_features=768, out_features=3072, bias=True)
                  (1): GELU()
                  (2): Dropout(p=0.0, inplace=False)
                )
                (1): Linear(in_features=3072, out_features=768, bias=True)
                (2): Dropout(p=0.0, inplace=False)
              )
              (dropout_layer): DropPath()
            )
          )
          (1): SwinBlock(
            (norm1): LayerNorm((768,), eps=1e-05, elementwise_affine=True)
            (attn): ShiftWindowMSA(
              (w_msa): WindowMSA(
                (qkv): Linear(in_features=768, out_features=2304, bias=True)
                (attn_drop): Dropout(p=0.0, inplace=False)
                (proj): Linear(in_features=768, out_features=768, bias=True)
                (proj_drop): Dropout(p=0.0, inplace=False)
                (softmax): Softmax(dim=-1)
              )
              (drop): DropPath()
            )
            (norm2): LayerNorm((768,), eps=1e-05, elementwise_affine=True)
            (ffn): FFN(
              (activate): GELU()
              (layers): Sequential(
                (0): Sequential(
                  (0): Linear(in_features=768, out_features=3072, bias=True)
                  (1): GELU()
                  (2): Dropout(p=0.0, inplace=False)
                )
                (1): Linear(in_features=3072, out_features=768, bias=True)
                (2): Dropout(p=0.0, inplace=False)
              )
              (dropout_layer): DropPath()
            )
          )
        )
      )
    )
    (norm0): LayerNorm((96,), eps=1e-05, elementwise_affine=True)
    (norm1): LayerNorm((192,), eps=1e-05, elementwise_affine=True)
    (norm2): LayerNorm((384,), eps=1e-05, elementwise_affine=True)
    (norm3): LayerNorm((768,), eps=1e-05, elementwise_affine=True)
    (conv1): Conv2d(3, 64, kernel_size=(7, 7), stride=(2, 2), padding=(3, 3), bias=False)
    (bn1): BatchNorm2d(64, eps=1e-05, momentum=0.1, affine=True, track_running_stats=True)
    (_conv_stem_relu): ReLU(inplace=True)
    (_conv_stem_maxpool): MaxPool2d(kernel_size=3, stride=2, padding=1, dilation=1, ceil_mode=False)
  )
  (decode_head): DenseDepthHead_Upsample(
    align_corners=True
    (loss_decode): SigLoss()
    (conv_depth): Conv2d(64, 1, kernel_size=(3, 3), stride=(1, 1), padding=(1, 1))
    (relu): ReLU()
    (sigmoid): Sigmoid()
    (conv_list): ModuleList(
      (0): ConvModule(
        (conv): Conv2d(768, 768, kernel_size=(1, 1), stride=(1, 1))
      )
      (1): UpSample(
        (convA): ConvModule(
          (conv): Conv2d(1152, 384, kernel_size=(3, 3), stride=(1, 1), padding=(1, 1))
          (activate): LeakyReLU(negative_slope=0.01, inplace=True)
        )
        (convB): ConvModule(
          (conv): Conv2d(384, 384, kernel_size=(3, 3), stride=(1, 1), padding=(1, 1))
          (activate): LeakyReLU(negative_slope=0.01, inplace=True)
        )
        (upsampler): Upsample(scale_factor=2.0, mode=bilinear)
      )
      (2): UpSample(
        (convA): ConvModule(
          (conv): Conv2d(576, 192, kernel_size=(3, 3), stride=(1, 1), padding=(1, 1))
          (activate): LeakyReLU(negative_slope=0.01, inplace=True)
        )
        (convB): ConvModule(
          (conv): Conv2d(192, 192, kernel_size=(3, 3), stride=(1, 1), padding=(1, 1))
          (activate): LeakyReLU(negative_slope=0.01, inplace=True)
        )
        (upsampler): Upsample(scale_factor=2.0, mode=bilinear)
      )
      (3): UpSample(
        (convA): ConvModule(
          (conv): Conv2d(288, 96, kernel_size=(3, 3), stride=(1, 1), padding=(1, 1))
          (activate): LeakyReLU(negative_slope=0.01, inplace=True)
        )
        (convB): ConvModule(
          (conv): Conv2d(96, 96, kernel_size=(3, 3), stride=(1, 1), padding=(1, 1))
          (activate): LeakyReLU(negative_slope=0.01, inplace=True)
        )
        (upsampler): Upsample(scale_factor=2.0, mode=bilinear)
      )
      (4): UpSample(
        (convA): ConvModule(
          (conv): Conv2d(160, 64, kernel_size=(3, 3), stride=(1, 1), padding=(1, 1))
          (activate): LeakyReLU(negative_slope=0.01, inplace=True)
        )
        (convB): ConvModule(
          (conv): Conv2d(64, 64, kernel_size=(3, 3), stride=(1, 1), padding=(1, 1))
          (activate): LeakyReLU(negative_slope=0.01, inplace=True)
        )
        (upsampler): Upsample(scale_factor=2.0, mode=bilinear)
      )
    )
  )
  (neck): HAHIHeteroNeck(
    (lateral_convs): ModuleList(
      (0): ConvModule(
        (conv): Conv2d(64, 64, kernel_size=(1, 1), stride=(1, 1), bias=False)
        (bn): BatchNorm2d(64, eps=1e-05, momentum=0.1, affine=True, track_running_stats=True)
        (activate): ReLU(inplace=True)
      )
      (1): ConvModule(
        (conv): Conv2d(96, 96, kernel_size=(1, 1), stride=(1, 1), bias=False)
        (bn): BatchNorm2d(96, eps=1e-05, momentum=0.1, affine=True, track_running_stats=True)
        (activate): ReLU(inplace=True)
      )
      (2): ConvModule(
        (conv): Conv2d(192, 192, kernel_size=(1, 1), stride=(1, 1), bias=False)
        (bn): BatchNorm2d(192, eps=1e-05, momentum=0.1, affine=True, track_running_stats=True)
        (activate): ReLU(inplace=True)
      )
      (3): ConvModule(
        (conv): Conv2d(384, 384, kernel_size=(1, 1), stride=(1, 1), bias=False)
        (bn): BatchNorm2d(384, eps=1e-05, momentum=0.1, affine=True, track_running_stats=True)
        (activate): ReLU(inplace=True)
      )
      (4): ConvModule(
        (conv): Conv2d(768, 768, kernel_size=(1, 1), stride=(1, 1), bias=False)
        (bn): BatchNorm2d(768, eps=1e-05, momentum=0.1, affine=True, track_running_stats=True)
        (activate): ReLU(inplace=True)
      )
    )
    (trans_proj): ModuleList(
      (0): ConvModule(
        (conv): Conv2d(96, 256, kernel_size=(1, 1), stride=(1, 1), bias=False)
        (bn): BatchNorm2d(256, eps=1e-05, momentum=0.1, affine=True, track_running_stats=True)
        (activate): ReLU(inplace=True)
      )
      (1): ConvModule(
        (conv): Conv2d(192, 256, kernel_size=(1, 1), stride=(1, 1), bias=False)
        (bn): BatchNorm2d(256, eps=1e-05, momentum=0.1, affine=True, track_running_stats=True)
        (activate): ReLU(inplace=True)
      )
      (2): ConvModule(
        (conv): Conv2d(384, 256, kernel_size=(1, 1), stride=(1, 1), bias=False)
        (bn): BatchNorm2d(256, eps=1e-05, momentum=0.1, affine=True, track_running_stats=True)
        (activate): ReLU(inplace=True)
      )
      (3): ConvModule(
        (conv): Conv2d(768, 256, kernel_size=(1, 1), stride=(1, 1), bias=False)
        (bn): BatchNorm2d(256, eps=1e-05, momentum=0.1, affine=True, track_running_stats=True)
        (activate): ReLU(inplace=True)
      )
    )
    (trans_fusion): ModuleList(
      (0): ConvModule(
        (conv): Conv2d(352, 96, kernel_size=(3, 3), stride=(1, 1), padding=(1, 1), bias=False)
        (bn): BatchNorm2d(96, eps=1e-05, momentum=0.1, affine=True, track_running_stats=True)
        (activate): ReLU(inplace=True)
      )
      (1): ConvModule(
        (conv): Conv2d(448, 192, kernel_size=(3, 3), stride=(1, 1), padding=(1, 1), bias=False)
        (bn): BatchNorm2d(192, eps=1e-05, momentum=0.1, affine=True, track_running_stats=True)
        (activate): ReLU(inplace=True)
      )
      (2): ConvModule(
        (conv): Conv2d(640, 384, kernel_size=(3, 3), stride=(1, 1), padding=(1, 1), bias=False)
        (bn): BatchNorm2d(384, eps=1e-05, momentum=0.1, affine=True, track_running_stats=True)
        (activate): ReLU(inplace=True)
      )
      (3): ConvModule(
        (conv): Conv2d(1024, 768, kernel_size=(3, 3), stride=(1, 1), padding=(1, 1), bias=False)
        (bn): BatchNorm2d(768, eps=1e-05, momentum=0.1, affine=True, track_running_stats=True)
        (activate): ReLU(inplace=True)
      )
    )
    (conv_proj): Sequential(
      (0): ConvModule(
        (conv): Conv2d(64, 256, kernel_size=(1, 1), stride=(1, 1), bias=False)
        (bn): BatchNorm2d(256, eps=1e-05, momentum=0.1, affine=True, track_running_stats=True)
        (activate): ReLU(inplace=True)
      )
    )
    (conv_fusion): Sequential(
      (0): ConvModule(
        (conv): Conv2d(320, 64, kernel_size=(3, 3), stride=(1, 1), padding=(1, 1), bias=False)
        (bn): BatchNorm2d(64, eps=1e-05, momentum=0.1, affine=True, track_running_stats=True)
        (activate): ReLU(inplace=True)
      )
    )
    (trans_positional_encoding): SinePositionalEncoding(num_feats=128, temperature=10000, normalize=False, scale=6.283185307179586, eps=1e-06)
    (conv_positional_encoding): SinePositionalEncoding(num_feats=128, temperature=10000, normalize=False, scale=6.283185307179586, eps=1e-06)
    (reference_points): Linear(in_features=256, out_features=2, bias=True)
    (multi_att): MultiScaleDeformableAttention(
      (dropout): Dropout(p=0.1, inplace=False)
      (sampling_offsets): Linear(in_features=256, out_features=512, bias=True)
      (attention_weights): Linear(in_features=256, out_features=256, bias=True)
      (value_proj): Linear(in_features=256, out_features=256, bias=True)
      (output_proj): Linear(in_features=256, out_features=256, bias=True)
    )
    (self_attn): MultiScaleDeformableAttention(
      (dropout): Dropout(p=0.1, inplace=False)
      (sampling_offsets): Linear(in_features=256, out_features=512, bias=True)
      (attention_weights): Linear(in_features=256, out_features=256, bias=True)
      (value_proj): Linear(in_features=256, out_features=256, bias=True)
      (output_proj): Linear(in_features=256, out_features=256, bias=True)
    )
  )
)
2025-05-21 16:33:28,436 - depth - INFO - Loaded 24231 images. Totally 0 invalid pairs are filtered
2025-05-21 16:33:29,914 - depth - INFO - Loaded 654 images. Totally 0 invalid pairs are filtered
2025-05-21 16:33:29,915 - depth - INFO - Start running, host: S6_XJ@ubuntu-System-Product-Name, work_dir: /newHome/S6_XJ/Monocular-Depth-Estimation-Toolbox/work_dirs/depthformer_swint_w7_nyu_bilinear
…
