…
/newHome/S6_XJ/mmsegmentation-main/mmseg/models/losses/cross_entropy_loss.py:250: UserWarning: Default ``avg_non_ignore`` is False, if you would like to ignore the certain label and average loss over non-ignore labels, which is the same with PyTorch official cross_entropy, set ``avg_non_ignore=True``.
  warnings.warn(
/newHome/S6_XJ/mmsegmentation-main/mmseg/engine/hooks/visualization_hook.py:60: UserWarning: The draw is False, it means that the hook for visualization will not take effect. The results will NOT be visualized or stored.
  warnings.warn('The draw is False, it means that the '
****************************
 MMDistributedDataParallel(
  (module): EncoderDecoder(
    (data_preprocessor): SegDataPreProcessor()
    (backbone): MixVisionTransformer(
      (layers): ModuleList(
        (0): ModuleList(
          (0): PatchEmbed(
            (projection): Conv2d(3, 64, kernel_size=(7, 7), stride=(4, 4), padding=(3, 3))
            (norm): LayerNorm((64,), eps=1e-06, elementwise_affine=True)
          )
          (1): ModuleList(
            (0-1): 2 x TransformerEncoderLayer(
              (norm1): LayerNorm((64,), eps=1e-06, elementwise_affine=True)
              (attn): EfficientMultiheadAttention(
                (attn): MultiheadAttention(
                  (out_proj): NonDynamicallyQuantizableLinear(in_features=64, out_features=64, bias=True)
                )
                (proj_drop): Dropout(p=0.0, inplace=False)
                (dropout_layer): DropPath()
                (sr): Conv2d(64, 64, kernel_size=(8, 8), stride=(8, 8))
                (norm): LayerNorm((64,), eps=1e-06, elementwise_affine=True)
              )
              (norm2): LayerNorm((64,), eps=1e-06, elementwise_affine=True)
              (ffn): MixFFN(
                (activate): GELU(approximate='none')
                (layers): Sequential(
                  (0): Conv2d(64, 256, kernel_size=(1, 1), stride=(1, 1))
                  (1): Conv2d(256, 256, kernel_size=(3, 3), stride=(1, 1), padding=(1, 1), groups=256)
                  (2): GELU(approximate='none')
                  (3): Dropout(p=0.0, inplace=False)
                  (4): Conv2d(256, 64, kernel_size=(1, 1), stride=(1, 1))
                  (5): Dropout(p=0.0, inplace=False)
                )
                (dropout_layer): DropPath()
              )
            )
          )
          (2): LayerNorm((64,), eps=1e-06, elementwise_affine=True)
        )
        (1): ModuleList(
          (0): PatchEmbed(
            (projection): Conv2d(64, 128, kernel_size=(3, 3), stride=(2, 2), padding=(1, 1))
            (norm): LayerNorm((128,), eps=1e-06, elementwise_affine=True)
          )
          (1): ModuleList(
            (0-1): 2 x TransformerEncoderLayer(
              (norm1): LayerNorm((128,), eps=1e-06, elementwise_affine=True)
              (attn): EfficientMultiheadAttention(
                (attn): MultiheadAttention(
                  (out_proj): NonDynamicallyQuantizableLinear(in_features=128, out_features=128, bias=True)
                )
                (proj_drop): Dropout(p=0.0, inplace=False)
                (dropout_layer): DropPath()
                (sr): Conv2d(128, 128, kernel_size=(4, 4), stride=(4, 4))
                (norm): LayerNorm((128,), eps=1e-06, elementwise_affine=True)
              )
              (norm2): LayerNorm((128,), eps=1e-06, elementwise_affine=True)
              (ffn): MixFFN(
                (activate): GELU(approximate='none')
                (layers): Sequential(
                  (0): Conv2d(128, 512, kernel_size=(1, 1), stride=(1, 1))
                  (1): Conv2d(512, 512, kernel_size=(3, 3), stride=(1, 1), padding=(1, 1), groups=512)
                  (2): GELU(approximate='none')
                  (3): Dropout(p=0.0, inplace=False)
                  (4): Conv2d(512, 128, kernel_size=(1, 1), stride=(1, 1))
                  (5): Dropout(p=0.0, inplace=False)
                )
                (dropout_layer): DropPath()
              )
            )
          )
          (2): LayerNorm((128,), eps=1e-06, elementwise_affine=True)
        )
        (2): ModuleList(
          (0): PatchEmbed(
            (projection): Conv2d(128, 320, kernel_size=(3, 3), stride=(2, 2), padding=(1, 1))
            (norm): LayerNorm((320,), eps=1e-06, elementwise_affine=True)
          )
          (1): ModuleList(
            (0-1): 2 x TransformerEncoderLayer(
              (norm1): LayerNorm((320,), eps=1e-06, elementwise_affine=True)
              (attn): EfficientMultiheadAttention(
                (attn): MultiheadAttention(
                  (out_proj): NonDynamicallyQuantizableLinear(in_features=320, out_features=320, bias=True)
                )
                (proj_drop): Dropout(p=0.0, inplace=False)
                (dropout_layer): DropPath()
                (sr): Conv2d(320, 320, kernel_size=(2, 2), stride=(2, 2))
                (norm): LayerNorm((320,), eps=1e-06, elementwise_affine=True)
              )
              (norm2): LayerNorm((320,), eps=1e-06, elementwise_affine=True)
              (ffn): MixFFN(
                (activate): GELU(approximate='none')
                (layers): Sequential(
                  (0): Conv2d(320, 1280, kernel_size=(1, 1), stride=(1, 1))
                  (1): Conv2d(1280, 1280, kernel_size=(3, 3), stride=(1, 1), padding=(1, 1), groups=1280)
                  (2): GELU(approximate='none')
                  (3): Dropout(p=0.0, inplace=False)
                  (4): Conv2d(1280, 320, kernel_size=(1, 1), stride=(1, 1))
                  (5): Dropout(p=0.0, inplace=False)
                )
                (dropout_layer): DropPath()
              )
            )
          )
          (2): LayerNorm((320,), eps=1e-06, elementwise_affine=True)
        )
        (3): ModuleList(
          (0): PatchEmbed(
            (projection): Conv2d(320, 512, kernel_size=(3, 3), stride=(2, 2), padding=(1, 1))
            (norm): LayerNorm((512,), eps=1e-06, elementwise_affine=True)
          )
          (1): ModuleList(
            (0-1): 2 x TransformerEncoderLayer(
              (norm1): LayerNorm((512,), eps=1e-06, elementwise_affine=True)
              (attn): EfficientMultiheadAttention(
                (attn): MultiheadAttention(
                  (out_proj): NonDynamicallyQuantizableLinear(in_features=512, out_features=512, bias=True)
                )
                (proj_drop): Dropout(p=0.0, inplace=False)
                (dropout_layer): DropPath()
              )
              (norm2): LayerNorm((512,), eps=1e-06, elementwise_affine=True)
              (ffn): MixFFN(
                (activate): GELU(approximate='none')
                (layers): Sequential(
                  (0): Conv2d(512, 2048, kernel_size=(1, 1), stride=(1, 1))
                  (1): Conv2d(2048, 2048, kernel_size=(3, 3), stride=(1, 1), padding=(1, 1), groups=2048)
                  (2): GELU(approximate='none')
                  (3): Dropout(p=0.0, inplace=False)
                  (4): Conv2d(2048, 512, kernel_size=(1, 1), stride=(1, 1))
                  (5): Dropout(p=0.0, inplace=False)
                )
                (dropout_layer): DropPath()
              )
            )
          )
          (2): LayerNorm((512,), eps=1e-06, elementwise_affine=True)
        )
      )
    )
    init_cfg={'type': 'Pretrained', 'checkpoint': 'https://download.openmmlab.com/mmsegmentation/v0.5/pretrain/segformer/mit_b1_20220624-02e5a6a1.pth'}
    (decode_head): SegformerHead_Upsample(
      input_transform=multiple_select, ignore_index=255, align_corners=False
      (loss_decode): CrossEntropyLoss(avg_non_ignore=False)
      (conv_seg): Conv2d(128, 150, kernel_size=(1, 1), stride=(1, 1))
      (dropout): Dropout2d(p=0.1, inplace=False)
      (convs): ModuleList(
        (0): ConvModule(
          (conv): Conv2d(64, 128, kernel_size=(1, 1), stride=(1, 1), bias=False)
          (bn): BatchNorm2d(128, eps=1e-05, momentum=0.1, affine=True, track_running_stats=True)
          (activate): ReLU(inplace=True)
        )
        (1): ConvModule(
          (conv): Conv2d(128, 128, kernel_size=(1, 1), stride=(1, 1), bias=False)
          (bn): BatchNorm2d(128, eps=1e-05, momentum=0.1, affine=True, track_running_stats=True)
          (activate): ReLU(inplace=True)
        )
        (2): ConvModule(
          (conv): Conv2d(320, 128, kernel_size=(1, 1), stride=(1, 1), bias=False)
          (bn): BatchNorm2d(128, eps=1e-05, momentum=0.1, affine=True, track_running_stats=True)
          (activate): ReLU(inplace=True)
        )
        (3): ConvModule(
          (conv): Conv2d(512, 128, kernel_size=(1, 1), stride=(1, 1), bias=False)
          (bn): BatchNorm2d(128, eps=1e-05, momentum=0.1, affine=True, track_running_stats=True)
          (activate): ReLU(inplace=True)
        )
      )
      (fusion_conv): ConvModule(
        (conv): Conv2d(512, 128, kernel_size=(1, 1), stride=(1, 1), bias=False)
        (bn): BatchNorm2d(128, eps=1e-05, momentum=0.1, affine=True, track_running_stats=True)
        (activate): ReLU(inplace=True)
      )
      (upsample_modules): ModuleList(
        (0-5): 6 x RRFU(
          (offset): Conv2d(128, 32, kernel_size=(1, 1), stride=(1, 1))
          (offset_mask): Conv2d(128, 32, kernel_size=(1, 1), stride=(1, 1))
          (sample_kernel): Conv2d(128, 9, kernel_size=(1, 1), stride=(1, 1))
          (kernel_mask): Conv2d(128, 9, kernel_size=(1, 1), stride=(1, 1))
        )
      )
    )
    init_cfg={'type': 'Normal', 'std': 0.01, 'override': {'name': 'conv_seg'}}
  )
) 
*******************************************
/newHome/S6_XJ/mmsegmentation-main/mmseg/engine/hooks/visualization_hook.py:60: UserWarning: The draw is False, it means that the hook for visualization will not take effect. The results will NOT be visualized or stored.
…
